app/src/main/assets/new_cnn.tflite (tflite, 263536 bytes, 10 tensors)

sequential/conv2d/BiasAdd/ReadVariableOp f4 [6]
-0.02506195 -0.06884074 0.45341778 -0.42896017 -0.27805644 0.5987943
00000000: b84e cdbc 60fc 8cbd 6026 e83e aba0 dbbe
00000010: 6a5d 8ebe 954a 193f

sequential/conv2d_1/BiasAdd/ReadVariableOp f4 [16]
-0.10674383 -0.2843668 -0.04174501 -0.046769414 -0.47823367 -0.2693186 -0.40566275 -0.1370342
-0.14655292 0.04197552 0.2314132 -0.2712369 -0.19981885 -0.2963869 0.018859945 0.010466011
00000000: 829c dabd 8698 91be d1fc 2abd 4991 3fbd
00000010: 0bdb f4be 21e4 89be 07b3 cfbe b152 0cbe
00000020: f811 16be 86ee 2b3d 95f7 6c3e 90df 8abe
00000030: 509d 4cbe 06c0 97be 2c80 9a3c a279 2b3c

sequential/conv2d/Conv2D f4 [6, 5, 5, 3]
0.9532712 0.39757872 0.3386574 0.8128136 0.03541906 0.22355352 0.96954197 0.1451487
0.23601696 0.82212496 0.16319062 0.11750499 0.8550873 -0.068914406 -0.10482378 0.7534453
-0.3396024 -0.033372678 0.7718638 -0.4467247 -0.30684957 0.71533924 -0.45166832 -0.044482097
0.9000608 -0.3437707 -0.061812397 1.035098 0.027693182 0.26472005 0.49396774 -0.62783056
-0.351448 0.2977353 -1.2454166 -0.6573767 0.36294943 -1.2402793 -0.85024357 0.57796127
-1.1308283 -0.58143634 0.6673756 -0.6046017 0.079053335 0.48847425 -0.69468147 -0.21795318
0.3193716 -1.035045 -0.950351 0.12329378 -1.6982822 -0.9803832 0.13773614 -1.663347
-1.1769588 0.40710127 -1.1519203 -0.6644121 1.2581592 0.21670452 0.48938516 1.111616
-0.122975275 0.024636254 1.0305449 -0.5229643 -0.17024766 0.6025488 -0.59224087 -0.13171685
1.027783 -0.47953925 0.12846209 0.61940205 0.623757 0.47274277 1.0733776 1.016819
0.47199368 1.2358682 1.0899208 0.5584772 0.97584677 0.6398056 0.14049155 0.87850165
0.5933305 0.06562856 -0.098345645 0.3916398 0.6010392 1.0239571 1.1127958 0.8137768
1.439582 1.1566778 1.1170949 1.225325 0.9375457 0.8156462 1.15099 1.0511059
0.5034352 -0.66448885 -0.5684219 -0.057412583 -0.24688055 -0.23203374 0.13644461 0.3913633
0.2524826 0.41793004 0.52927744 0.23054764 0.26966536 0.7478173 0.39897913 0.56709075
-1.3059292 -1.2058853 -0.7026796 -1.4392856 -1.1808809 -0.9587573 -1.2070919 -1.1010005
-0.8035741 -0.79849035 -1.1464261 -0.8369818 -0.39197946 -0.49509707 -0.1489264 -0.8288701
-0.7396078 -0.36507922 -1.1899846 -0.8842131 -0.2849923 -1.1347065 -1.0324135 -0.7836963
-1.1282289 -1.3103567 -0.97126603 -0.6347982 -0.9329398 -0.6978649 -0.61478794 0.111807734
0.52712387 -0.85197157 -0.114558734 0.36560464 -0.8197669 -0.3324327 0.50212127 -1.0020953
-0.061129775 0.65776503 -0.5292755 -0.015182122 0.56590503 -0.76124275 -0.024441803 0.42851236
-1.0742081 -0.3205691 0.38501802 -1.3105311 -0.18631499 0.19998999 -1.0878614 -0.4307905
0.20026138 -1.0807221 -0.21407194 0.34861097 -0.68485934 0.08151156 0.15800464 -0.8757791
-0.02602072 0.34287012 -1.2924252 -0.3449873 0.20831239 -1.1242619 -0.28435197 0.3416486
-0.96859807 -0.1952696 0.42494074 -0.21539396 0.3212486 0.3584822 -0.5799641 -0.082230955
0.41473722 -0.7899366 0.0049314415 0.29750732 -1.0323116 0.004395576 0.27586 -0.8958547
-0.15406483 0.2822465 -0.095899865 0.32574022 0.4082607 -0.20417647 0.20493962 0.46475512
-0.63800836 0.16669497 0.3362783 -0.66386175 0.042017624 0.36872014 -0.4118858 0.031944957
0.24597615 0.18508583 0.30672038 0.21799086 0.09712456 0.5739994 0.39223507 -0.15770918
0.35330552 0.39417288 -0.7207092 -0.007726094 0.06562161 -0.77619386 -0.21573937 -0.13731219
0.029405078 0.39117578 0.25860578 0.14989327 0.77724856 0.531272 -0.39171973 0.38720232
0.2625837 -0.92688644 -0.043269843 -0.23723608 -1.0072559 -0.5467451 -0.23661943 0.305176
00000000: 9509 743f 708f cb3e 8164 ad3e 8d14 503f
00000010: 9413 113d 37eb 643e e733 783f dca1 143e
00000020: 6eae 713e c876 523f 711b 273e 75a6 f03d
00000030: 00e7 5a3f ff22 8dbd daad d6bd cbe1 403f
00000040: 5ee0 adbe cab1 08bd de98 453f 1ab9 e4be
00000050: 631b 9dbe 7920 373f 1241 e7be dc32 36bd
00000060: 626a 663f b702 b0be ff2e 7dbd 177e 843f
00000070: d0dc e23c 6389 873e 57e9 fc3e 81b9 20bf
00000080: fef0 b3be c370 983e d069 9fbf d749 28bf
00000090: 82d4 b93e 79c1 9ebf 90a9 59bf 45f5 133f
000000a0: fbbe 90bf 03d9 14bf 21d9 2a3f 2dc7 1abf
000000b0: b7e6 a13d 4c19 fa3e a5d6 31bf 1e2f 5fbe
000000c0: ad84 a33e 5b7c 84bf 344a 73bf 7381 fc3d
000000d0: 5061 d9bf 65fa 7abf b40a 0d3e 8ee8 d4bf
000000e0: 96a6 96bf 946f d03e 2072 93bf e916 2abf
000000f0: 5c0b a13f cae7 5d3e b190 fa3e 6f49 8e3f
00000100: 76da fbbd f8d1 c93c e5e8 833f fde0 05bf
00000110: 6755 2ebe a340 1a3f 199d 17bf c8e0 06be
00000120: 658e 833f 2b86 f5be 918b 033e 2291 1e3f
00000130: 8aae 1f3f 570b f23e 7064 893f 2027 823f
00000140: 28a9 f13e ee30 9e3f 8682 8b3f 5df8 0e3f
00000150: 18d1 793f 4dca 233f 04dd 0f3e 7ce5 603f
00000160: 82e4 173f 4468 863d 7169 c9bd 0385 c83e
00000170: b4dd 193f 0711 833f 1870 8e3f ad53 503f
00000180: 3944 b83f 050e 943f f7fc 8e3f 73d7 9c3f
00000190: ff02 703f 30ce 503f a453 933f a38a 863f
000001a0: 21e1 003f f11b 2abf 1984 11bf 7529 6bbd
000001b0: 41ce 7cbe 419a 6dbe 23b8 0b3e c560 c83e
000001c0: 6645 813e edfa d53e ba7e 073f ae14 6c3e
000001d0: 9411 8a3e f470 3f3f fe46 cc3e dc2c 113f
000001e0: b028 a7bf 735a 9abf cfe2 33bf 833a b8bf
000001f0: 1b27 97bf 1e71 75bf fd81 9abf 96ed 8cbf
00000200: 08b7 4dbf dd69 4cbf 17be 92bf 7044 56bf
00000210: 88b1 c8be 5d7d fdbe 2a80 18be d530 54bf
00000220: f056 3dbf aaeb babe 6a51 98bf ca5b 62bf
00000230: 83ea 91be 103e 91bf 2026 84bf 52a0 48bf
00000240: ce69 90bf c5b9 a7bf e4a4 78bf 2382 22bf
00000250: 25d5 6ebf 46a7 32bf be62 1dbf 74fb e43d
00000260: 97f1 063f cf1a 5abf c59d eabd 8830 bb3e
00000270: 3edc 51bf 9e34 aabe 058b 003f a944 80bf
00000280: 3763 7abd 4a63 283f 997e 07bf 6fbe 78bc
00000290: 27df 103f cee0 42bf 2d3a c8bc f965 db3e
000002a0: a77f 89bf a221 a4be 1521 c53e 7cbf a7bf
000002b0: 5bc9 3ebe 2dca 4c3e 0b3f 8bbf 9390 dcbe
000002c0: 5211 4d3e 1a55 8abf ad35 5bbe 237d b23e
000002d0: f152 2fbf 88ef a63d f8cb 213e 0f33 60bf
000002e0: 6829 d5bc ac8c af3e 306e a5bf 2da2 b0be
000002f0: d84f 553e d0e7 8fbf 9596 91be 91ec ae3e
00000300: 0bf6 77bf c1f4 47be d591 d93e 3c90 5cbe
00000310: b27a a43e fb8a b73e 8778 14bf b468 a8bd
00000320: 7058 d43e 4939 4abf ee97 a13b e152 983e
00000330: c922 84bf c408 903b 863d 8d3e bc56 65bf
00000340: 2cc3 1dbe 9d82 903e 2667 c4bd 6cc7 a63e
00000350: 8c07 d13e a313 51be b1db 513e 62f4 ed3e
00000360: 8454 23bf 16b2 2a3e ab2c ac3e d8f2 29bf
00000370: ac1a 2c3d e3c8 bc3e b2e2 d2be b7d8 023d
00000380: 2ce1 7b3e 2487 3d3e 740a 9d3e ff38 5f3e
00000390: 3ee9 c63d a0f1 123f 09d3 c83e 847e 21be
000003a0: 76e4 b43e 07d1 c93e 6680 38bf 2d2b fdbb
000003b0: 9f64 863d a4b4 46bf c8ea 5cbe 919b 0cbe
000003c0: ebe2 f03c 3148 c83e fa67 843e 9f7d 193e
000003d0: c3f9 463f 7101 083f 7d8f c8be 623f c63e
000003e0: 5f71 863e 6e48 6dbf b83b 31bd 04ee 72be
000003f0: c3ed 80bf 7df7 0bbf 5d4c 72be 0740 9c3e

sequential/conv2d_1/Conv2D f4 [16, 5, 5, 6]
-0.054955974 0.116949365 -0.015110545 0.03627964 -0.034161244 0.39286992 0.080651246 -0.27392203
-0.096773006 -0.14554255 -0.2386437 0.7591404 -0.09712677 -0.39361227 -0.089722745 -0.16009274
-0.40913683 0.757478 -0.39100564 -0.30374467 -0.14660968 0.025494888 -0.23720121 0.20905575
-0.100659736 0.00046391296 -0.062798396 0.07039297 -0.010299443 0.13644664 -0.17574953 0.1391612
-0.08712481 -0.34734383 0.014405579 -0.034148723 -0.2527274 -0.32904983 -0.51914966 -0.18098931
-0.2714172 0.21258031 0.05798551 -0.43255273 -0.645096 -0.10239416 -0.25955722 0.56478244
0.02446208 -0.013905374 -0.6771954 0.021830173 0.10905919 0.36193955 0.008926516 0.33917615
-0.2037603 0.19727884 0.19595526 0.10339426 0.20581535 0.5651385 -0.09056073 -0.52589387
0.11928572 0.040699612 -0.09285989 0.23821592 -0.86188954 -0.31027305 -0.04616599 -0.37480322
0.24263093 -0.09024689 -0.93223983 0.11625826 0.110213034 0.15369831 0.44764888 0.17773335
-0.93863297 0.14749686 0.33198625 0.36965704 0.27621982 0.25020882 -0.33915496 -0.0013650055
0.19706829 0.20385575 -0.020016395 0.36849892 -0.005018624 -0.49063972 0.014009296 0.22667886
-0.28479537 0.4854974 -0.61428565 -0.3159095 0.2267688 -0.48748672 0.00018793202 0.014928992
-0.909387 0.24340403 0.2901436 -0.5257619 -0.1018417 -0.19286333 -0.83198225 0.21574913
-0.013586964 0.11231889 -0.10082264 -0.18295527 -0.28503647 0.27967286 -0.1394499 0.34926564
-0.12391234 0.1489515 0.2515038 -0.20272766 -0.14783308 0.23012443 -0.15595059 0.5103663
-0.4012646 -0.36543232 0.14168279 -0.3032153 -0.32005307 0.47263768 -0.6904827 0.08934268
0.40168396 -0.5525353 -0.38568622 0.15564676 -0.5163209 0.28565094 0.121790856 -0.33211613
-0.28443792 -0.21846405 -0.030058684 0.44525364 -0.21537007 0.060963694 -0.08754299 0.024181994
0.27764606 -0.20167547 -0.11730079 0.27695477 -0.011044359 -0.33556533 0.39333212 0.07541993
-0.14244607 0.49556005 0.21592535 0.09525141 0.54982346 -0.47247878 -0.14758004 0.49937218
-0.008102154 0.3725643 0.27992758 -0.7196842 -0.35289252 0.19635883 -0.42204073 0.12009126
0.2546611 0.05530627 -0.00769927 0.0733107 -0.087941796 -0.5786101 0.12998411 -0.6965917
-0.77721834 0.11289328 -0.27284235 -1.1809052 0.021403236 -0.29323974 -1.4161772 0.105596706
0.021003885 -1.5991565 0.14013177 -0.30257505 -1.4047613 0.8224009 0.12179373 -0.69704044
0.17808977 -0.4294693 -0.7766517 0.6896726 0.13553773 -0.037734706 0.23513494 0.062452752
0.056664806 0.36255962 -0.22737764 0.23025389 -0.24874441 -0.9494092 -0.10593905 0.18800437
-0.072950944 0.2031735 -0.7423893 -0.8854654 -0.06839738 0.2427239 0.3638968 -0.06611796
-0.8069997 -0.42297205 0.11317952 0.81477845 0.46498743 -0.24947649 -0.49444547 -0.4141432
0.06821082 0.95389503 0.17509893 -0.46669522 0.03635403 -0.1136449 -0.34446386 0.39474648
0.30706584 0.54495907 -0.13832612 -0.76837575 0.2930481 0.47474384 0.5502396 0.97230166
-0.4857414 -0.7510583 0.6391505 0.5479941 0.58946323 0.56648237 -0.8618118 -0.5769507
00000000: 8419 61bd 2683 ef3d 3892 77bc f699 143d
00000010: a9ec 0bbd 3f26 c93e 7b2c a53d 823f 8cbe
00000020: ed30 c6bd 1b09 15be 045f 74be 0657 423f
00000030: 66ea c6bd 8c87 c9be 8fc0 b7bd 5aef 23be
00000040: 627a d1be 14ea 413f e431 c8be 6c84 9bbe
00000050: d920 16be a8da d03c e0e4 72be b612 563e
00000060: b126 cebd 5839 f339 729c 80bd 312a 903d
00000070: ffbe 28bc abb8 0b3e aff7 33be 4680 0e3e
00000080: 7e6e b2bd 0dd7 b1be 6105 6c3c 88df 0bbd
00000090: 7c65 81be 3879 a8be fee6 04bf 4355 39be
000000a0: 32f7 8abe a7ae 593e 3782 6d3d 8d77 ddbe
000000b0: 0325 25bf 08b4 d1bd afe4 84be 9595 103f
000000c0: b364 c83c 5ed3 63bc ae5c 2dbf 31d5 b23c
000000d0: 6d5a df3d 2450 b93e 8640 123c 7fa8 ad3e
000000e0: 8aa6 50be 7703 4a3e 7fa8 483e 5fc0 d33d
000000f0: 42c1 523e ebac 103f e777 b9bd fba0 06bf
00000100: 124c f43d a3b4 263d 532d bebd e0ee 733e
00000110: cba4 5cbf 1cdc 9ebe 8d18 3dbd 35e6 bfbe
00000120: 3e74 783e 5dd3 b8bd 45a7 6ebf d018 ee3d
00000130: 5fb7 e13d 1763 1d3e 3c32 e53e bbff 353e
00000140: 404a 70bf 6b09 173e 1afa a93e b043 bd3e
00000150: af6c 8d3e 5f1b 803e b8a5 adbe fce9 b2ba
00000160: 45cc 493e 90bf 503e 6cf9 a3bc e4ab bc3e
00000170: 4573 a4bb 2135 fbbe 3f87 653c 811e 683e
00000180: b3d0 91be 1d93 f83e d341 1dbf e4be a1be
00000190: 1536 683e dc97 f9be 9e0f 4539 bb98 743c
000001a0: 96cd 68bf e83e 793e b48d 943e 5598 06bf
000001b0: 6292 d0bd f77d 45be cafc 54bf 57ed 5c3e
000001c0: dc9b 5ebc 7207 e63d 1a7c cebd a058 3bbe
000001d0: 4df0 91be 4831 8f3e f4cb 0ebe f2d2 b23e
000001e0: c1c5 fdbd be86 183e 1bc5 803e d797 4fbe
000001f0: 8e61 17be bda5 6b3e 83b1 1fbe 5ea7 023f
00000200: 8e72 cdbe f219 bbbe 4b15 113e 093f 9bbe
00000210: ffdd a3be 91fd f13e 79c3 30bf 4cf9 b63d
00000220: 85a9 cd3e f472 0dbf aa78 c5be dd61 1f3e
00000230: 9b2d 04bf d740 923e 7c6d f93d 200b aabe
00000240: d9a1 91be 0ab5 5fbe a13d f6bc 49f8 e33e
00000250: f989 5cbe 11b5 793d bd49 b3bd 5119 c63c
00000260: a027 8e3e 0484 4ebe 663b f0bd 04cd 8d3e
00000270: 66f3 34bc 38cf abbe d462 c93e c475 9a3d
00000280: 62dd 11be 0cba fd3e 891b 5d3e 2c13 c33d
00000290: 3bc1 0c3f bde8 f1be 391f 17be b6ad ff3e
000002a0: e6be 04bc bfc0 be3e ab52 8f3e 393d 38bf
000002b0: 54ae b4be 4a12 493e b915 d8be 68f2 f53d
000002c0: f162 823e d488 623d 284a fcbb ec23 963d
000002d0: d41a b4bd cb1f 14bf 8e1a 053e d553 32bf
000002e0: c8f7 46bf 9834 e73d feb1 8bbe e727 97bf
000002f0: d755 af3c 8523 96be 4b45 b5bf 1643 d83d
00000300: 5710 ac3c 29b1 ccbf b47e 0f3e 1eeb 9abe
00000310: 38cf b3bf de88 523f fe6e f93d 3e71 32bf
00000320: 2a5d 363e 66e3 dbbe a5d2 46bf 628e 303f
00000330: 67ca 0a3e b58f 1abd 37c7 703e 75ce 7f3d
00000340: 5b19 683d 6aa1 b93e afd5 68be adc7 6b3e
00000350: dbb6 7ebe 7b0c 73bf 93f6 d8bd 3884 403e
00000360: 4e67 95bd b70c 503e 3a0d 3ebf dcad 62bf
00000370: ed13 8cbd 9d8c 783e ae50 ba3e da68 87bd
00000380: 8897 4ebf cb8f d8be aaca e73d 5295 503f
00000390: d512 ee3e c476 7fbe f527 fdbe 940a d4be
000003a0: 1db2 8b3d 7732 743f 224d 333e adf2 eebe
000003b0: f7e7 143d a8be e8bd 915d b0be 361c ca3e
000003c0: bc37 9d3e 7082 0b3f 5da5 0dbe 46b4 44bf
000003d0: 670a 963e a011 f33e 81dc 0c3f c3e8 783f
000003e0: 19b3 f8be 5b45 40bf 5e9f 233f 5749 0c3f
000003f0: 10e7 163f fd04 113f b39f 5cbf 0bb3 13bf

sequential/dense/BiasAdd/ReadVariableOp f4 [120]
0.023892269 0.026102709 -0.013478403 -0.02861973 0.088933155 0.16882704 0.046780605 -0.084671825
0.00015096292 0.0678658 0.09547688 -0.031580724 -0.032785073 0.05021976 -0.061859183 0.11061026
-0.0336733 -0.056684382 -0.12605266 0.021081178 -0.035592932 -0.0047832336 0.045761514 0.18822214
-0.058216162 0.00041265908 0.053895112 -0.067531995 0.055503543 -0.11589162 0.0013257054 0.0038285968
0.23712696 -0.04317056 0.14661917 0.017630836 -0.06642001 -0.098309375 -0.054956127 -0.009644757
-0.0071108034 0.04269154 -0.01310651 0.0044900333 -0.013396653 -0.028443571 0.024018068 -0.0052428413
-0.06505546 -0.017667197 0.040949296 -0.056266267 -0.029871967 0.11066269 0.041977014 0.08457713
0.064164065 0.11312652 0.07461355 0.0067278855 -0.032266464 0.030692179 0.16251493 0.10768591
0.025991851 -0.034790028 -0.108121336 -0.08350983 0.0574636 -0.025054116 -0.039844368 -0.10508542
0.069573246 0.04694219 -0.07885735 0.002555799 -0.12754941 0.1495797 0.10949931 0.057397556
0.029036826 -0.019140052 0.024837786 -0.08865317 0.05667413 -0.07258114 -0.12438636 -0.10317555
-0.021325693 -0.07028972 -0.17660256 0.023913993 -0.015159415 -0.101500995 -0.11804697 0.03590277
-0.00019604975 -0.16631836 -0.061170366 0.12860295 0.085186556 -0.04448369 0.1142087 -0.021582723
-0.059276257 -0.09447464 0.030005172 -0.062797554 0.0050438894 0.038691692 -0.005807149 0.0025250984
-0.019263724 0.010528504 -0.00020890986 0.052822895 -0.022169912 0.13414326 -0.053539045 0.18566678
00000000: b8b9 c33c 59d5 d53c 85d4 5cbc ed73 eabc
00000010: 9622 b63d ffe0 2c3e 059d 3f3d 6c68 adbd
00000020: cd4b 1e39 39fd 8a3d 6289 c33d ca5a 01bd
00000030: a449 06bd 3cb3 4d3d 0e60 7dbd a287 e23d
00000040: 04ed 09bd e22d 68bd f313 01be 6fb2 ac3c
00000050: e5c9 11bd acbc 9cbb 6d70 3b3d 4ebd 403e
00000060: 1274 6ebd 2a5a d839 1fc1 5c3d 374e 8abd
00000070: af57 633d 9658 edbd 4bc3 ad3a 32e9 7a3b
00000080: 69d1 723e 9dd3 30bd 5623 163e 8b6e 903c
00000090: 3707 88bd 6d56 c9bd ad19 61bd 0b05 1ebc
000000a0: be01 e9bb 53dd 2e3d b0bc 56bc 2121 933b
000000b0: a37d 5bbc 7e02 e9bc 8ac1 c43c 24cc abbb
000000c0: cc3b 85bd ccba 90bc 73ba 273d 7577 66bd
000000d0: 0eb6 f4bc 1fa3 e23d 17f0 2b3d c636 ad3d
000000e0: 7368 833d e0ae e73d fdce 983d 9875 dc3b
000000f0: d729 04bd 2a6e fb3c 506a 263e 6e8a dc3d
00000100: ddec d43c fd7f 0ebd b86e ddbd 3407 abbd
00000110: f45e 6b3d 4a3e cdbc d933 23bd 0637 d7bd
00000120: 6b7c 8e3d 7446 403d f67f a1bd 317f 273b
00000130: 509c 02be 6c2b 193e 2d41 e03d b319 6b3d
00000140: a3de ed3c 99cb 9cbc 9d78 cb3c cb8f b5bd
00000150: 2223 683d 6ca5 94bd 47be febd b44d d3bd
00000160: 38b3 aebc 0ff4 8fbd 4dd7 34be 47e7 c33c
00000170: 325f 78bc c1df cfbd 9cc2 f1bd c80e 133d
00000180: b492 4db9 5c4f 2abe c78d 7abd 7eb0 033e
00000190: 4a76 ae3d 8834 36bd 40e6 e93d 40ce b0bc
000001a0: a9cb 72bd ec7b c1bd 68cd f53c 019c 80bd
000001b0: 3647 a53b 2e7b 1e3d e649 bebb 1f7c 253b
000001c0: f5ce 9dbc bf7f 2c3c d00e 5bb9 d25c 583d
000001d0: ad9d b5bc da5c 093e c24b 5bbd 6f1f 3e3e

sequential/dense_2/BiasAdd/ReadVariableOp f4 [43]
0.040412754 -0.121833146 -0.1975283 -0.13877226 -0.12881722 -0.11253985 -0.15734202 -0.1156514
-0.12068283 -0.13256232 -0.17618145 -0.010573102 -0.08038484 -0.104544416 -0.07367492 -0.14481056
-0.055926234 -0.06051573 -0.053702604 -0.113153905 -0.11616928 -0.05846187 -0.11132656 -0.09571813
-0.12670222 -0.1348988 -0.02824085 0.019520901 -0.037206028 -0.08829512 -0.08903216 -0.17329541
-0.1777689 -0.06522583 -0.018722327 -0.038702164 -0.117913924 0.011048499 -0.17159739 -0.08078132
-0.053455446 -0.032917712 -0.13028446
00000000: d887 253d a883 f9bd dc44 4abe 511a 0ebe
00000010: a9e8 03be 4b7b e6bd 441e 21be a4da ecbd
00000020: 8f28 f7bd 6bbe 07be e968 34be ce3a 2dbc
00000030: cfa0 a4bd 621b d6bd e0e2 96bd 3849 14be
00000040: e812 65bd 58df 77bd 43f7 5bbd 3cbd e7bd
00000050: 29ea edbd b775 6fbd 2eff e3bd de07 c4bd
00000060: 3abe 01be e922 0abe 5b59 e7bc 4cea 9f3c
00000070: 5965 18bd 12d4 b4bd 7e56 b6bd 5a74 31be
00000080: 0d09 36be 1f95 85bd 915f 99bc 2986 1ebd
00000090: db7c f1bd c304 353c 3ab7 2fbe ad70 a5bd
000000a0: 19f4 5abd b9d4 06bd 4a69 05be

sequential/dense_1/BiasAdd/ReadVariableOp f4 [84]
0.034516156 0.001472896 0.11055213 -0.041827977 -0.03630367 -0.00897776 0.07982698 -0.053827077
0.008123405 0.045555245 0.0617439 -0.080043025 0.06565285 0.006147937 0.054690864 0.021332849
-0.095271185 -0.019359693 -0.020954015 0.12990044 0.08788413 -0.007680975 0.07413855 -0.0022973227
-0.06686657 0.10596899 0.008301608 -0.0039936476 0.010574972 0.059372164 -0.022242455 -0.053607963
-0.053481873 0.0872596 -0.08939431 0.015139541 0.07694819 -0.029616915 -0.092662126 0.04065635
0.017104382 -0.039800417 -0.0625313 0.05549163 0.0019418523 0.058769826 -0.08732511 0.04681855
0.08648316 -0.022874005 -0.055949196 0.052828237 0.04567389 0.04724709 -0.078754835 0.09094385
-0.008664568 0.045435168 0.015435791 0.0055944207 0.0016677716 -0.014059653 0.0023351281 0.029683208
0.12121294 -0.063485354 0.0518046 0.042220786 0.030359311 0.081436515 0.05196611 0.013641547
0.042235173 0.012664951 0.01297248 0.010203359 -0.009773593 0.03606817 -0.025973912 -0.017324539
0.034625232 0.039275423 0.08510978 -0.014706631
00000000: d060 0d3d 300e c13a 2869 e23d d053 2bbd
00000010: 28b3 14bd 7417 13bc 547c a33d c879 5cbd
00000020: 0818 053c 2398 3a3d 2ce7 7c3d 99ed a3bd
00000030: 0075 863d a274 c93b 8703 603d 3ac2 ae3c
00000040: 8a1d c3bd 3898 9ebc c1a7 abbc 9f04 053e
00000050: 98fc b33d b0b0 fbbb f4d5 973d ae8e 16bb
00000060: 57f1 88bd 4506 d93d 7803 083c 25dd 82bb
00000070: a642 2d3c 3a30 733d cf35 b6bc 0694 5bbd
00000080: cf0f 5bbd 29b5 b23d 5d14 b7bd d60b 783c
00000090: 0397 9d3d 2c9f f2bc a4c5 bdbd 4687 263d
000000a0: 7d1e 8c3c c305 23bd 6910 80bd 314b 633d
000000b0: c085 fe3a a1b8 703d 82d7 b2bd cfc4 3f3d
000000c0: 151e b13d 4462 bbbc fc2a 65bd 6c62 583d
000000d0: 8b14 3b3d 2a86 413d 374a a1bd c540 ba3d
000000e0: d5f5 0dbc 3a1a 3a3d 66e6 7c3c 6751 b73b
000000f0: 2199 da3a 755a 66bc f308 193b 332a f33c
00000100: 7d3e f83d 9c04 82bd 0f31 543d b4ef 2c3d
00000110: 17b4 f83c 30c8 a63d 6ada 543d cc80 5f3c
00000120: cafe 2c3d a880 4f3c 868a 543c fd2b 273c
00000130: 6c21 20bc 38bc 133d 3ec7 d4bc 31ec 8dbc
00000140: 30d3 0d3d 44df 203d 094e ae3d 15f4 70bc

sequential/dense/MatMul f4 [120, 400]
0.21114999 0.062406346 0.39272803 -0.10526818 0.19696225 0.57599604 -0.5281801 0.1191404
-0.11816341 -0.14308645 -0.06501788 0.42516825 0.20598535 0.37880418 0.56526434 -0.0932456
-0.18079917 -0.12709013 -0.26802537 -0.07475694 -0.06024695 -0.2986011 -0.14277416 -0.40195653
0.3807399 -0.094262324 -0.020665819 -0.07662153 -0.068352595 -0.1461444 0.27515206 0.29801524
-0.0109399315 -0.45091662 -0.51594996 -0.43317986 0.24892825 -0.04452236 0.12241467 -0.07551253
0.46121556 0.03508343 0.09505284 -0.3566892 -0.90382475 0.015283542 -0.3046767 0.4289276
0.12054875 -0.51729774 -0.262077 -0.4782218 0.18202548 -0.16278426 0.062012058 0.29144508
0.32816744 0.08567205 0.1282248 0.28326276 -0.12369364 0.10979617 -0.07575129 0.08088637
0.14602114 0.3603463 0.066344 -0.35727862 -0.07208112 0.14782718 0.15960892 0.36080152
0.03586988 0.03059521 0.094420984 0.55277836 0.30710196 0.5540919 0.5116809 -0.17001049
-0.17316686 0.09967182 0.6029531 0.27216357 -0.15806428 0.83159626 -0.11253158 -0.015977979
-0.038042355 0.10428548 0.020966498 -0.114551 0.25790146 0.12777948 0.2975204 0.12658432
-0.2259369 0.025493862 -0.09046671 0.09197062 -0.3197412 0.07957206 0.07205271 -0.33598268
-0.20658407 0.052943103 0.25189668 -0.12647864 -0.060583808 0.16249257 0.07670589 0.3780777
-0.013130412 -0.88906 1.1657476 0.15060276 0.2214547 -0.39986235 -0.00075355114 -0.061937574
-0.16183345 -0.002803027 0.25941807 -0.16081806 -0.7923965 -0.20188098 -0.18532552 0.21695279
0.24629058 -0.7190575 0.020197235 0.5370058 0.09516649 0.58388627 -0.3125108 -0.07367221
-0.3217894 0.13436697 0.11435597 -0.04838296 0.28658363 0.02180551 0.07840813 -0.5451626
-0.04808648 -0.35988054 -0.20489089 0.045301482 0.4035222 0.1265981 0.13301219 0.15467444
-0.08987578 0.046649836 -0.049527463 0.06605859 0.06661944 -0.038114876 0.06269257 0.06688594
-0.13145685 -0.23048769 0.34478253 0.2971925 -0.35952356 0.25127703 -0.13231404 0.34030947
-0.077808686 0.03206232 -0.24241029 0.13221848 -0.39578336 0.024845034 -0.12681308 0.43752113
-0.14140834 -0.7357172 0.14024925 0.08257812 -0.5128149 0.07214434 0.16830465 -0.3127367
-0.19470967 0.1747521 0.073801786 -0.5840535 0.3994537 -0.239935 -0.31592116 0.0013453016
0.16100802 0.5192571 -0.529794 -0.5330447 -0.23129706 0.6808849 0.42662528 0.29633212
0.06575053 0.08365823 -0.10453841 -0.21331742 -0.4861803 0.5152591 0.15153775 -0.41980457
0.10078204 0.06720123 -1.0950668 -0.22853392 -0.46782073 0.39449117 -0.27038538 -0.0037551196
-0.24358979 0.046091635 0.23300108 -0.58127356 0.08107956 0.026754705 0.18738708 -0.33915117
-0.042215403 -0.3157244 -0.8418143 -0.5124761 -0.02415138 0.11860072 0.3874986 0.13606612
-0.085062705 0.20753303 -0.061221797 0.016448192 -0.38874996 -0.036304828 -0.018305084 0.2568154
-0.02792216 -0.09574004 -0.34244198 0.73335856 -0.037696216 0.055633724 -0.48535398 0.45953625
-0.037597682 0.11318447 -0.19706239 -0.103621945 -0.06255469 0.33700588 0.06062145 0.124420814
00000000: b437 583e cc9d 7f3d a613 c93e d896 d7bd
00000010: 79b0 493e 7a74 133f d036 07bf e2ff f33d
00000020: a8ff f1bd 4185 12be 1828 85bd a7af d93e
00000030: d3ed 523e 9ff2 c13e 2ab5 103f 8df7 bebd
00000040: 6b23 39be ea23 02be 9f3a 89be 2b1a 99bd
00000050: 81c5 76bd 3ee2 98be 6433 12be 3fcd cdbe
00000060: 57f0 c23e 9b0c c1bd 5d4b a9bc c0eb 9cbd
00000070: 72fc 8bbd e1a6 15be bbe0 8c3e 7495 983e
00000080: 663d 33bc 8bde e6be 4c15 04bf c0c9 ddbe
00000090: 0ce7 7e3e 145d 36bd 8bb4 fa3d 50a6 9abd
000000a0: 7224 ec3e a5b3 0f3d 10ab c23d f89f b6be
000000b0: 0f61 67bf d267 7a3c 96fe 9bbe 669c db3e
000000c0: 43e2 f63d a06d 04bf f52e 86be 7dd9 f4be
000000d0: e364 3a3e ebb0 26be 5b00 7e3d 4a38 953e
000000e0: 9005 a83e d474 af3d 5d4d 033e d107 913e
000000f0: 1753 fdbd d0dc e03d 7e23 9bbd c1a7 a53d
00000100: 9186 153e 4f7f b83e 5ddf 873d 39ed b6be
00000110: 449f 93bd 0260 173e 8570 233e faba b83e
00000120: 4cec 123d cea2 fa3c ca5f c13d e282 0d3f
00000130: 783c 9d3e f7d8 0d3f 85fd 023f 3b17 2ebe
00000140: a752 31be bd20 cc3d 225b 1a3f 0659 8b3e
00000150: 9adb 21be 7ee3 543f f576 e6bd 40e4 82bc
00000160: 4dd2 1bbd a093 d53d efc1 ab3c b799 eabd
00000170: a90b 843e a0d8 023e 9854 983e 529f 013e
00000180: 015c 67be 81d8 d03c 9c46 b9bd 185b bc3d
00000190: 1eb5 a3be adf6 a23d 5f90 933d ec05 acbe
000001a0: c68a 53be deda 583d 9af8 803e 9e83 01be
000001b0: ba26 78bd 7464 263e fa17 9d3d 6693 c13e
000001c0: f120 57bc 7099 63bf 3837 953f 9c37 1a3e
000001d0: 05c5 623e c2ba ccbe f689 45ba 41b2 7dbd
000001e0: abb7 25be fdb2 37bb 72d2 843e 7dad 24be
000001f0: 7fda 4abf e3b9 4ebe f9c5 3dbe df28 5e3e
00000200: 9933 7c3e 2714 38bf ac74 a53c 3679 093f
00000210: a6e6 c23d 9279 153f 6a01 a0be 75e1 96bd
00000220: 95c1 a4be 7f97 093e 7633 ea3d 362d 46bd
00000230: 17bb 923e 78a1 b23c 7194 a03d c78f 0bbf
00000240: 54f6 44bd 4342 b8be ebce 51be 0c8e 393d
00000250: 769a ce3e efa2 013e 5934 083e fa62 1e3e
00000260: cb10 b8bd e613 3f3d 4fdd 4abd ba49 873d
00000270: c66f 883d 581e 1cbd f664 803d 7ffb 883d
00000280: a09c 06be f704 6cbe 5687 b03e 9e29 983e
00000290: 7913 b8be 62a7 803e 557d 07be 0b3d ae3e
000002a0: 295a 9fbd c753 033d 673a 78be 4864 073e
000002b0: 1ea4 cabe d087 cb3c 4adb 01be c502 e03e
000002c0: 59cd 10be f657 3cbf 809d 0f3e b81e a93d
000002d0: d647 03bf 69c0 933d 0e58 2c3e 061f a0be
000002e0: f961 47be 37f2 323e 6425 973d 8884 15bf
000002f0: 3285 cc3e 85b1 75be 6bc0 a1be d554 b03a
00000300: 49df 243e 09ee 043f 94a0 07bf 9e75 08bf
00000310: 23d9 6cbe 794e 2e3f a16e da3e d8b8 973e
00000320: 37a8 863d 0255 ab3d 3c18 d6bd e26f 5abe
00000330: a0ec f8be 05e8 033f b62c 1b3e a0f0 d6be
00000340: d066 ce3d cca0 893d 262b 8cbf cc04 6abe
00000350: 3386 efbe bffa c93e f46f 8abe 7418 76bb
00000360: 9a6f 79be 95ca 3c3d d697 6e3e 58ce 14bf
00000370: 0a0d a63d af2c db3c 66e2 3f3e 39a5 adbe
00000380: 0fea 2cbd a1a6 a1be 2481 57bf a231 03bf
00000390: 1dd9 c5bc efe4 f23d 3766 c63e eb54 0b3e
000003a0: 5b35 aebd 8a83 543e b5c3 7abd 5cbe 863c
000003b0: 3c0a c7be 5fb4 14bd 8bf4 95bc 4f7d 833e
000003c0: 04bd e4bc 5b13 c4bd 8e54 afbe 63bd 3b3f
000003d0: 5967 1abd 30e0 633d 5180 f8be 5648 eb3e
000003e0: 0700 1abd 42cd e73d b9ca 49be be37 d4bd
000003f0: ac1c 80bd 098c ac3e 334e 783d 57d0 fe3d

sequential/dense_1/MatMul f4 [84, 120]
0.7839488 -0.015907004 -0.20641789 0.37081155 -0.5809768 -0.9201525 -0.0030589362 0.3957672
0.74591017 0.24161363 -0.022192944 1.1844599 1.15522 0.32634982 0.51458204 0.078842476
-0.13286601 0.3291419 0.49415052 -1.2452389 0.7373575 -0.4400068 -0.7867123 -0.17880614
0.08704142 1.0114021 -1.1227875 0.3778644 -0.49039763 0.09180254 0.627083 0.17747705
0.50336987 -1.3215804 0.6312379 0.08354774 0.10733285 -0.8833613 -0.08227583 -0.7249248
0.4555978 -0.16290477 -0.8900069 -0.23772715 -0.12986788 -0.05916303 -0.08933572 -0.3943537
0.120110445 -0.14424352 1.8883362 0.86833686 -0.08443005 0.26164368 -0.08014357 -0.7516669
0.14456771 -0.91206235 -0.8764855 1.4199018 0.31326687 -0.03290377 -0.1517988 0.34628665
-0.08751602 0.98380023 0.6672412 -0.7044895 -0.039915692 0.6316701 -0.24791472 1.8738788
-1.2588651 0.47974864 0.38919985 1.4661434 0.09632786 -0.30271402 -1.3792428 0.3749301
-0.41781366 0.4767898 -0.6214985 0.99010503 0.089483276 -0.5729688 0.30179328 1.0514547
0.37487784 0.30198315 0.2438252 0.2983029 0.93426496 0.19943726 0.7276671 0.34001422
1.1924744 -0.26139003 -1.2005093 -0.7673985 -1.9440275 -0.16090414 0.5024255 0.43516946
0.31124038 -0.96780705 0.91004664 0.36261684 1.5669018 -0.94233954 0.452579 0.27665207
0.29642364 -1.0528882 -0.5003409 -0.26500192 0.80821764 -0.21884468 0.669555 0.15831417
1.2435586 -0.30069026 -0.11899597 0.077341706 0.20250435 -0.13455302 0.7769726 -0.52210885
1.459953 0.29897848 -0.27381513 -0.4593988 0.010562346 0.59875107 0.6061437 -0.17440596
-0.056759182 -0.3411922 -0.5536702 -1.4278561 0.57647806 0.044903032 -0.6967761 0.024019336
1.3136108 0.65516084 0.23158051 0.71214396 -0.3234733 0.93216246 1.0409209 0.0023930783
1.2342588 -0.15459175 1.1227052 -0.68192214 0.19712864 -1.3886111 0.021405604 -0.7620249
-0.3068472 0.105020255 -0.14266688 0.5252581 -1.6965648 -1.0128754 -0.16275385 -0.32371402
0.05153273 0.12502773 -1.2686467 0.38004133 0.77079105 0.2864661 0.030678643 0.18123427
0.10163231 -0.96592635 -0.20366666 0.38090003 -0.0674647 0.012754682 0.70540184 -0.32565102
0.32432517 -0.94203883 0.544392 0.7417856 -0.24353449 -0.6910599 -0.27697894 0.3437917
-0.24487898 0.24148801 0.6123283 1.6837206 -1.7855184 -0.21106453 0.09483844 0.1952385
-0.5826018 0.1132735 -0.1711426 -0.08445128 0.42283344 -0.57243776 0.26303852 0.23938617
0.41781893 -1.9394324 -0.121394075 -0.03696352 -0.6094377 0.3335292 -0.66655695 0.58981866
-0.8868932 0.072163254 1.4954606 0.15203285 -0.45641312 -0.013113912 0.31103244 0.55664396
-1.0614868 -2.1667976 0.7680058 0.07722053 -1.4934629 -1.5559429 -0.36813515 -0.10471406
0.20610036 0.74372566 -0.29681873 0.07869161 0.09703193 0.47212937 0.84469324 -0.35472378
-0.4504459 0.4182166 -0.20458609 -0.1481152 -0.0186453 0.60325533 -0.37233984 -0.07082057
-0.2023342 0.18937561 -0.23927002 1.3716006 -0.7353771 0.5147351 -0.17938831 -0.3066367
00000000: deb0 483f 684f 82bc 365f 53be 03db bd3e
00000010: e5ba 14bf 1d8f 6bbf 6f78 48bb 00a2 ca3e
00000020: f8f3 3e3f 9069 773e facd b5bc 629c 973f
00000030: 40de 933f 5317 a73e a6bb 033f 2a78 a13d
00000040: 070e 08be 4a85 a83e 4c01 fd3e fd63 9fbf
00000050: 76c3 3c3f 9248 e1be fa65 49bf f518 37be
00000060: c642 b23d a075 813f 80b7 8fbf 7177 c13e
00000070: 6615 fbbe f802 bc3d 8388 203f 8bbc 353e
00000080: d9dc 003f 8c29 a9bf cf98 213f 141b ab3d
00000090: 53d1 db3d f723 62bf 3b80 a8bd ac94 39bf
000000a0: 1d44 e93e 82d0 26be 7ed7 63bf bf6e 73be
000000b0: 16fc 04be ef54 72bd a5f5 b6bd bae8 c9be
000000c0: 77fc f53d 93b4 13be 00b5 f13f 534b 5e3f
000000d0: a9e9 acbd 29f6 853e 5022 a4bd 3e6d 40bf
000000e0: 8f09 143e eb7c 69bf 5b61 60bf 58bf b53f
000000f0: 8464 a03e 1bc6 06bd 2571 1bbe 7c4c b13e
00000100: 993b b3bd 55da 7b3f 52d0 2a3f 6d59 34bf
00000110: a37e 23bd 22b5 213f 5bdd 7dbe 43db ef3f
00000120: 7e22 a1bf 9da1 f53e 3445 c73e 96aa bb3f
00000130: 8b47 c53d 55fd 9abe 078b b0bf d7f6 bf3e
00000140: aceb d5be cb1d f43e 871a 1fbf 8677 7d3f
00000150: 0243 b73d 15ae 12bf a684 9a3e 1196 863f
00000160: fdef bf3e 899d 9a3e 50ad 793e 28bb 983e
00000170: fd2b 6f3f 4839 4c3e 6448 3a3f 5816 ae3e
00000180: 00a3 983f ead4 85be 4aaa 99bf 3a74 44bf
00000190: e5d5 f8bf 0ec4 24be f59e 003f 88ce de3e
000001a0: e65a 9f3e 34c2 77bf d1f8 683f eaa8 b93e
000001b0: 3d90 c83f 2a3d 71bf 6fb8 e73e 57a5 8d3e
000001c0: d7c4 973e 0ac5 86bf 5716 00bf 55ae 87be
000001d0: 5ae7 4e3f d218 60be f567 2b3f 1c1d 223e
000001e0: ee2c 9f3f 13f4 99be 29b4 f3bd 5465 9e3d
000001f0: 4d5d 4f3e 44c8 09be ade7 463f eda8 05bf
00000200: bddf ba3f b513 993e 7f31 8cbe 5236 ebbe
00000210: b10d 2d3c c047 193f 3c2c 1b3f 7a97 32be
00000220: 517c 68bd beb0 aebe 55bd 0dbf fdc3 b6bf
00000230: 1194 133f 3eec 373d eb5f 32bf 33c4 c43c
00000240: 6624 a83f 9fb8 273f 7123 6d3e 114f 363f
00000250: 4b9e a5be 33a2 6e3f e53c 853f 31d5 1c3b
00000260: 31fc 9d3f 4d4d 1ebe ceb4 8f3f 7392 2ebf
00000270: 17dc 493e 02be b1bf ce5a af3c 1014 43bf
00000280: 141b 9dbe dc14 d73d 4417 12be 5177 063f
00000290: 0929 d9bf e7a5 81bf f2a8 26be d8bd a5be
000002a0: fc13 533d 4507 003e 0463 a2bf c794 c23e
000002b0: 9052 453f afab 923e c751 fb3c 7a95 393e
000002c0: 9a24 d03d f346 77bf fe8d 50be 5405 c33e
000002d0: ef2a 8abd 04f9 503c 3795 343f bbbb a6be
000002e0: f30d a63e 7529 71bf 465d 0b3f a9e5 3d3f
000002f0: 1b61 79be 4de9 30bf 2fd0 8dbe 7705 b03e
00000300: 8ec1 7abe a248 773e 8cc1 1c3f 2884 d73f
00000310: de8b e4bf 4d21 58be a83a c23d 9aec 473e
00000320: 6425 15bf f0fb e73d 0140 2fbe cbf4 acbd
00000330: a07d d83e 488b 12bf fcac 863e a621 753e
00000340: 5dec d53e 523f f8bf 759d f8bd 0f67 17bd
00000350: 1c04 1cbf 57c4 aa3e 7aa3 2abf 5bfe 163f
00000360: 6f0b 63bf 54ca 933d 416b bf3f 80ae 1b3e
00000370: fbae e9be bcdb 56bc a53f 9f3e 3880 0e3f
00000380: cdde 87bf d0ac 0ac0 079c 443f cc25 9e3d
00000390: cb29 bfbf 2329 c7bf 367c bcbe 5374 d6bd
000003a0: f90b 533e ce64 3e3f a0f8 97be 1129 a13d
000003b0: adb8 c63d f1ba f13e d13d 583f 5b9e b5be
000003c0: d8a0 e6be 7c20 d63e 047f 51be 83ab 17be
000003d0: 07be 98bc f16e 1a3f 54a3 bebe 600a 91bd
000003e0: b230 4fbe aeeb 413e 3303 75be 9c90 af3f
000003f0: ac41 3cbf aec5 033f 92b1 37be 7cff 9cbe

sequential/dense_2/MatMul f4 [43, 84]
-0.34020486 -2.343739 0.3243041 -0.53839284 -0.8966324 -0.8808763 -0.44032374 0.3727364
-0.98392665 0.08148141 0.125889 -0.42534623 0.15437293 -0.052070964 0.24954383 -0.58432776
-0.36379355 -1.0720172 -1.4712033 0.18731757 0.28100994 -1.2993108 0.1296073 0.18151738
0.013549403 0.0644009 0.11264818 -0.005500548 0.21308777 0.31239423 -2.341514 0.08588755
-0.82594246 0.45308095 -2.4364216 0.06239011 -1.2177247 -2.889438 -0.1987236 -1.1409658
0.17830929 0.16840307 0.24335147 -0.15017565 -0.3348108 0.5212895 -1.8967196 0.056222524
0.29770675 -1.5809193 -2.874363 0.36916676 -0.65379983 0.516428 -1.979414 0.20540687
-0.0033410806 0.09783324 0.042373225 0.3948355 0.42259878 0.3281256 -1.0017341 -0.3597189
-0.352231 -0.8827502 0.004558738 0.14454308 0.48050743 0.03905096 0.12104538 -0.016980724
0.525155 0.26172906 -0.51522726 -0.3313188 -0.47276518 0.19454232 0.30537686 -0.9512271
-0.47394264 -0.13847473 -0.46627578 -1.0394423 -1.2859021 -1.0354967 -0.1275108 -1.1267887
-0.854811 0.15576634 -0.25514376 -0.24534878 -0.82756615 -1.0115325 -0.16157757 -0.19596562
0.6004274 0.54438174 0.08033045 -0.70840067 -0.35355985 0.00843554 -1.6323811 0.09527461
0.054886572 -0.93230593 -0.01870203 0.049306553 -0.019125633 -0.006068905 -0.4850319 -0.12525961
-0.14143005 0.30020022 -0.061317183 -0.21202013 -0.9767723 0.715799 -1.052694 0.019796433
-0.27049452 0.2855657 0.037783455 -0.64750046 0.39997232 0.05250576 -0.15162541 -0.7693599
-1.1845359 0.42987248 -1.0070695 0.0904579 -0.14261088 0.42188945 0.36662772 0.28640065
-0.2259369 -0.3674964 -1.6780894 0.039021086 0.15008274 -0.08940383 0.040910054 0.013119634
0.59638107 0.16615622 -0.50218916 -0.3899137 -1.120594 -0.8107555 -0.21881625 -0.2770591
-0.021822464 -0.00893876 0.1259268 0.24427584 0.3746688 0.012320053 -0.89378697 -0.28633836
0.6334798 0.0010963188 -0.04289401 -1.1674031 -0.67310464 0.58727026 -0.7697939 -1.6109191
-0.3559523 0.3598611 0.346657 -1.2068646 -0.13140851 0.37446105 -0.5864983 0.21726993
-1.4059628 -0.8255542 -1.9955695 0.15675241 -0.878783 0.33635926 -0.25616246 -0.5907481
-0.28831336 -0.68701786 0.20841587 0.5651817 -0.05581823 0.5952177 0.3313754 -0.2782473
-0.050448477 0.13439019 0.1802802 -0.7403781 -0.12980866 -0.084633216 -0.18506235 -0.13808219
-1.7203205 -0.4732396 0.27313897 0.05084839 0.12834543 0.3889946 -0.17029674 -0.13923538
0.14031625 -0.17113633 0.007031341 -1.1909196 -1.456692 -0.18615216 -1.7924691 0.053849425
0.24337146 -0.07450671 0.20519245 -0.20916426 0.6081717 0.153692 0.56363255 -0.028473964
0.058549467 -0.26479003 -0.12638237 -0.8779636 -1.154987 0.0047021136 -1.616762 -1.3811852
-0.46085414 -0.64634913 -1.499427 -0.11386845 -0.11117176 -0.032276306 0.09396072 0.49802205
0.2643213 -0.005032008 -0.037036926 0.04895468 0.18942621 -0.1483881 0.27129227 -1.0468426
-0.060218133 -0.12566957 -0.36630797 0.41398123 -1.1674569 0.110576056 0.0767034 -0.16845618
00000000: 552f aebe d2ff 15c0 300b a63e 1dd4 09bf
00000010: b389 65bf 1c81 61bf 1d72 e1be 4ed7 be3e
00000020: 9ee2 7bbf badf a63d 0ce9 003e fbc6 d9be
00000030: f013 1e3e 5d48 55bd 6b88 7f3e 8196 15bf
00000040: 2643 babe dc37 89bf 6450 bcbf 2dd0 3f3e
00000050: 89e0 8f3e d14f a6bf c7b7 043e b1df 393e
00000060: 51fe 5d3c 9ee4 833d 17b4 e63d f13d b4bb
00000070: ae33 5a3e 23f2 9f3e 5edb 15c0 d0e5 af3d
00000080: f770 53bf 3afa e73e 55ee 1bc0 c68c 7f3d
00000090: 67de 9bbf 8dec 38c0 337e 4bbe 2b0b 92bf
000000a0: b696 363e db71 2c3e 2131 793e a5c7 19be
000000b0: 526c abbe 3b73 053f b5c7 f2bf 9749 663d
000000c0: 056d 983e 905b cabf 90f5 37c0 6d03 bd3e
000000d0: 6d5f 27bf a034 043f 705d fdbf 2e56 523e
000000e0: 08f6 5abb cb5c c83d 8c8f 2d3d e127 ca3e
000000f0: de5e d83e 1400 a83e d338 80bf 132d b8be
00000100: 9f57 b4be ebfb 61bf 7761 953b 1a03 143e
00000110: 1205 f63e e6f3 1f3d a4e6 f73d 291b 8bbc
00000120: 8f70 063f 5a01 863e efe5 03bf 9ea2 a9be
00000130: 470e f2be 1a36 473e 5b5a 9c3e 9f83 73bf
00000140: 9ca8 f2be 52cc 0dbe b3bb eebe 720c 85bf
00000150: 7198 a4bf 288b 84bf 3192 02be 9d3a 90bf
00000160: e5d4 5abf 3681 1f3e 34a2 82be b63c 7bbe
00000170: 60db 53bf e679 81bf 9774 25be 36ab 48be
00000180: 9cb5 193f 9a5c 0b3f 4a84 a43d bf59 35bf
00000190: cc05 b5be 3835 0a3c ddf1 d0bf 561f c33d
000001a0: bed0 603d 9aab 6ebf 0035 99bc abf5 493d
000001b0: 5cad 9cbc aadd c6bb 1a56 f8be 0e44 00be
000001c0: 0ad3 10be d8b3 993e ba27 7bbd ce1b 59be
000001d0: c00d 7abf 9a3e 373f adbe 86bf 212c a23c
000001e0: 427e 8abe ab35 923e d3c2 1a3d 97c2 25bf
000001f0: 2cc9 cc3e 4810 573d b143 1bbe c5f4 44bf
00000200: df9e 97bf 3f18 dc3e a7e7 80bf fe41 b93d
00000210: 9608 12be e501 d83e a1b6 bb3e 1ba3 923e
00000220: 015c 67be 7d28 bcbe a2cb d6bf 93d4 1f3d
00000230: 4aaf 193e 5b19 b7bd 4d91 273d bcf3 563c
00000240: 6eac 183f db24 2a3e 788f 00bf c5a2 c7be
00000250: a06f 8fbf ac8d 4fbf 5e11 60be b1da 8dbe
00000260: 06c5 b2bc e073 12bc f4f2 003e 7223 7a3e
00000270: 97d4 bf3e 0cda 493c 39cf 64bf f19a 92be
00000280: bb2b 223f 5bb2 8f3a a1b1 2fbd 776d 95bf
00000290: 9650 2cbf 5857 163f 3711 45bf 9932 cebf
000002a0: 613f b6be b73f b83e 077d b13e 8a7a 9abf
000002b0: f48f 06be 5cb9 bf3e c124 16bf 027c 5e3e
000002c0: 97f6 b3bf 8557 53bf d26e ffbf b483 203e
000002d0: ecf7 60bf 4837 ac3e ba27 83be 443b 17bf
000002e0: cf9d 93be 67e0 2fbf f86a 553e bfaf 103f
000002f0: a8a1 64bd 3060 183f 09aa a93e 6e76 8ebe
00000300: 10a3 4ebd 959d 093e 5f9b 383e 6b89 3dbf
00000310: 90ec 04be 2e54 adbd fc80 3dbe 6b65 0dbe
00000320: 7633 dcbf 764c f2be dfd8 8b3e 6746 503d
00000330: fc6c 033e 4d2a c73e 4562 2ebe b893 0ebe
00000340: 10af 0f3e 5d3e 2fbe 2a67 e63b 0e70 98bf
00000350: e274 babf ac9e 3ebe a16f e5bf 3791 5c3d
00000360: 5e36 793e f996 98bd f81d 523e 282f 56be
00000370: 24b1 1b3f 7061 1d3e 394a 103f 3b42 e9bc
00000380: 91d1 6f3d 8f92 87be 616a 01be 39c2 60bf
00000390: 9dd6 93bf 3014 9a3b 0ff2 cebf adca b0bf
000003a0: 13f5 ebbe 2377 25bf 39ed bfbf dd33 e9bd
000003b0: 05ae e3bd 2934 04bd 7a6e c03d bffc fe3e
000003c0: 1f55 873e 8be3 a4bb 08b4 17bd b484 483d
000003d0: f2f8 413e 0df3 17be d2e6 8a3e f0fe 85bf
000003e0: 4aa7 76bd 86af 00be b88c bbbe 59f5 d33e
000003f0: 3a6f 95bf b375 e23d ac16 9d3d c77f 2cbe
